SavedModel.tar (torch_old, 639545 bytes, 14 tensors)

conv1.weight f4 [3, 1, 3]
-0.44070888 -0.45599574 -0.28364405 -0.33190897 -0.25703502 -0.18307436 -12.760389 -5.5053124
-5.297581
00000000: 98a4 e1be 4678 e9be cb39 91be f9ef a9be
00000010: 189a 83be d877 3bbe 8e2a 4cc1 852b b0c0
00000020: c985 a9c0

conv1.bias f4 [3]
-1.9032223 -1.9471153 0.10625482
00000000: ca9c f3bf 133b f9bf 219c d93d

fc1.weight f4 [256, 600]
0.018368807 -0.034394935 -0.024282858 0.015063763 -0.022702027 0.00035980344 -0.015576065 -0.01809627
0.023240201 -0.024238527 0.038670465 0.03327868 -0.024720348 -0.009701585 -0.006611742 0.03250283
0.032397844 -0.038444538 -0.018056791 0.028283194 -0.01521156 0.011931434 -0.00871047 0.012678321
0.040449455 -0.020649657 -0.030642528 0.029857844 -0.0028497502 -0.022902375 -0.01429862 -0.00944905
0.011392318 -0.031657472 0.037717238 0.0089218095 -0.03431009 -0.040293507 0.007338997 -0.03737508
0.023798637 -0.03469642 -0.027470544 0.017502319 -0.033112258 0.020464122 -0.009891678 -0.00562023
0.027933754 -0.026077315 -0.03282902 0.019320846 0.022530526 0.03186942 0.009193875 -0.0033839606
0.034551255 -0.03131797 -0.0039567836 -0.0357169 0.014777221 0.02484069 -0.0031538196 0.0026482567
0.02312345 0.03159742 -0.017575344 0.01484254 0.018072706 -0.031652894 -0.025562074 -0.01848384
0.007341806 -0.010679543 0.029260524 0.016478844 -0.031341553 -0.0048163272 0.0222696 0.01884674
-0.005290676 0.015364621 0.040784597 0.034900382 0.016921725 0.021624885 -0.021251302 -0.0040309615
-0.009386022 0.015701033 -0.0057009794 -0.017849164 -0.012005923 0.034708858 -0.028396323 -0.026611336
0.037959807 0.0016948655 0.03905648 0.017480515 0.013623133 -0.008828372 0.017344143 -0.03230743
0.029681869 0.007846709 -0.03654236 0.0056784637 -0.034137197 0.012378216 -0.0051813647 0.00840744
-0.036155574 -0.032340854 0.040597856 0.030265346 -0.0045067333 -0.020368896 -0.008593254 0.011192933
-0.016777279 0.011000618 -0.0035757497 -0.012816895 -0.020068023 0.00779742 -0.03219769 -0.03425658
0.023279041 0.013956204 -0.027110249 0.022138357 -0.008393198 0.040070347 0.0074266344 -0.032472286
0.032626644 -0.031789653 -0.016871084 0.010518812 0.0203619 0.021259736 -0.036934722 -0.0019068606
0.004050821 0.017024498 -0.040661685 -0.036702886 0.000829719 0.0088831745 0.009714071 -0.03724749
0.0017120615 -0.03696287 -0.0033047572 0.008285716 0.03730674 0.015659466 -0.010699842 -0.026553106
-0.03244138 -0.027116561 -0.031000298 -0.028125403 -0.031351756 -0.0015729405 0.0053090006 -0.04011745
-0.005982667 0.025826976 0.022228964 -0.023142172 -0.009374943 0.02136401 -0.0348379 -0.009250525
-0.0055418983 0.026905946 -0.02113147 -0.02954751 -0.0043526813 -0.020860964 -0.00250623 0.001132261
-0.038295943 -0.014193494 -0.0015282221 -0.015062897 -0.020500205 0.038576476 -0.0023097545 -0.034327846
-0.011555582 0.033431 0.030604146 0.00056303665 0.0071854778 0.0036358088 -0.013734374 -0.028384224
0.023645021 -0.0016803779 0.011284053 -0.038499735 0.029519886 -0.006741829 0.006416101 -0.012012146
0.034412988 0.014420532 0.030997679 0.0029831454 0.024096347 0.012415562 -0.004581053 -0.0029076189
0.017475773 0.010076296 0.009942979 0.010729227 0.0004365854 0.036186285 -0.037414275 -0.03527611
-0.039819464 -0.034620553 -0.037791345 0.029378697 0.016552135 -0.031342972 -0.013494004 0.033231676
0.0004861541 0.022531584 -0.005775351 0.0017170049 0.002333574 -0.03340619 0.035948046 0.039643943
0.004976604 0.025965758 -0.037661456 0.007089697 0.009148583 -0.03401168 -0.03389819 0.0316267
0.023437664 0.011747848 -0.0049455427 0.0076924376 0.022852689 0.013950307 -0.00027980655 0.026154831
00000000: 2e7a 963c b4e1 0cbd d8ec c6bc 00ce 763c
00000010: 9af9 b9bc 00a4 bc39 c032 7fbc a13e 94bc
00000020: 3c62 be3c e08f c6bc ec64 1e3d 3a4f 083d
00000030: 5482 cabc 66f3 1ebc 50a7 d8bb b021 053d
00000040: 9ab3 043d 0578 1dbd d6eb 93bc 28b2 e73c
00000050: e839 79bc 107c 433c 5cb6 0ebc bcb8 4f3c
00000060: 54ae 253d 7829 a9bc 0a06 fbbc 7098 f43c
00000070: e0c2 3abb c39d bbbc c244 6abc 30d0 1abc
00000080: d8a6 3a3c 44ab 01bd 647d 1a3d c82c 123c
00000090: bd88 0cbd ce0a 25bd f87b f03b 9d16 19bd
000000a0: 5cf5 c23c d51d 0ebd e809 e1bc 0661 8f3c
000000b0: b8a0 07bd 60a4 a73c b410 22bc e829 b8bb
000000c0: 54d5 e43c 18a0 d5bc b977 06bd c046 9e3c
000000d0: f091 b83c 8289 023d e8a1 163c 70c5 5dbb
000000e0: 9e85 0d3d 4647 00bd e8a7 81bb e24b 12bd
000000f0: 281c 723c b47e cb3c 50b0 4ebb 608e 2d3b
00000100: 646d bd3c 4c6c 013d 2bfa 8fbc 202e 733c
00000110: 360d 943c 77a6 01bd 8e67 d1bc 6c6b 97bc
00000120: 8893 f03b 40f9 2ebc c4b3 ef3c a4fe 863c
00000130: 0060 00bd 48d2 9dbb bc6e b63c 7a64 9a3c
00000140: 685d adbb e4bb 7b3c c00d 273d b4f3 0e3d
00000150: 6e9f 8a3c ac26 b13c 3617 aebc 2816 84bb
00000160: d4c7 19bc 749f 803c 48cf babb 6938 92bc
00000170: 7eb4 44bc e02a 0e3d 689f e8bc 0400 dabc
00000180: be7b 1b3d 4026 de3a b0f9 1f3d 4c33 8f3c
00000190: 9033 5f3c e0a4 10bc 4e15 8e3c cc54 04bd
000001a0: 6427 f33c 7c8f 003c 71ad 15bd 6812 ba3b
000001b0: 72d3 0bbd 00ce 4a3c 70c8 a9bb 5cbf 093c
000001c0: de17 14bd d877 04bd f049 263d 08ef f73c
000001d0: 38ad 93bb acdc a6bc b8ca 0cbc 9062 373c
000001e0: 8170 89bc f03b 343c 2057 6abb f4fd 51bc
000001f0: b265 a4bc 8081 ff3b bae1 03bd a150 0cbd
00000200: b0b3 be3c 90a8 643c 5016 debc 805b b53c
00000210: a083 09bc ce20 243d 205b f33b a901 05bd
00000220: 84a3 053d de35 02bd 3a35 8abc 1857 2c3c
00000230: 00ce a63c e628 ae3c dd48 17bd a0ef f9ba
00000240: c0bc 843b f676 8b3c de8c 26bd c455 16bd
00000250: 8081 593a bc8a 113c c427 1f3c d390 18bd
00000260: 4067 e03a 6166 17bd a094 58bb d0c0 073c
00000270: f4ce 183d 4848 803c 644e 2fbc e685 d9bc
00000280: 41e1 04bd 8d23 debc 56f4 fdbc 3f67 e6bc
00000290: b36a 00bd 202b ceba 20f7 ad3b 3252 24bd
000002a0: 400a c4bb 1893 d33c 8419 b63c a794 bdbc
000002b0: 5c99 19bc 9403 af3c 30b2 0ebd 848f 17bc
000002c0: d098 b5bb dc69 dc3c e81b adbc 9f0d f2bc
000002d0: f0a0 8ebb 9de4 aabc 903f 24bb 6068 943a
000002e0: 35dc 1cbd d48b 68bc a04e c8ba 5eca 76bc
000002f0: 0cf0 a7bc 5e02 1e3d 405f 17bb 5b9b 0cbd
00000300: a053 3dbc f2ee 083d 8cb5 fa3c c098 133a
00000310: 2874 eb3b c046 6e3b 2406 61bc 0886 e8bc
00000320: 34b3 c13c 2040 dcba c0e0 383c e6b1 1dbd
00000330: b0d3 f13c 90ea dcbb 283e d23b 98ce 44bc
00000340: a2f4 0c3d 1844 6c3c d8ee fd3c e080 433b
00000350: b465 c53c a46a 4b3c a81c 96bb c08d 3ebb
00000360: 5a29 8f3c 0c17 253c e0e7 223c a4c9 2f3c
00000370: 80e5 e439 1238 143d b63f 19bd af7d 10bd
00000380: bc19 23bd 48ce 0dbd 19cb 1abd 98ab f03c
00000390: 5898 873c 7d61 00bd f415 5dbc f01d 083d
000003a0: 80e2 fe39 2894 b83c 283f bdbb 200d e13a
000003b0: e0ee 183b eed4 08bd 423e 133d b061 223d
000003c0: c812 a33b 24b6 d43c e642 1abd b050 e83b
000003d0: f0e3 153c d54f 0bbd d4d8 0abd 008b 013d
000003e0: 5800 c03c 0c7a 403c 380e a2bb d810 fc3b
000003f0: 9035 bb3c d48f 643c 00b3 92b9 a842 d63c

fc1.bias f4 [256]
-0.0045054816 -0.0041303933 -0.024334323 -0.03730084 0.012789622 -0.033321865 -0.022532452 0.00040951
0.013536673 -0.032713518 0.016693342 -0.013197368 -0.0054143593 0.026248768 -0.0018658526 0.036650933
0.009328712 -0.03735626 0.04003954 0.012731362 0.023140624 -0.004858885 -0.025811546 0.025285356
-0.014078518 0.037641957 -0.012643261 -0.008442856 -0.036428094 -0.021532433 -0.008362193 -0.023992797
-0.032148078 0.03334979 0.029379494 0.025196053 0.031001098 0.03990733 -0.03643763 0.012073886
0.026328921 0.021705583 0.029111356 0.03446032 -0.027925815 -0.013959819 0.00919193 0.035692796
-0.021100668 -0.010872224 0.024295397 -0.0011413395 0.037651382 -0.010608265 -0.019161066 0.024045743
0.007563535 0.03043069 0.026229315 -0.012062391 -0.03581968 0.02700372 0.004889559 -0.023206713
-0.020886004 0.0062756576 -0.007886913 -0.013662854 -0.010773193 0.018825356 -0.035051476 0.03685782
-0.010111604 -0.028969683 0.008729797 0.03771928 0.039025508 -0.034013696 -0.025032056 -0.018513668
0.03447693 -0.024359528 -0.03331869 0.022321023 -0.013514785 0.00394056 -0.027838316 0.01672427
-0.026848732 -0.0024564415 -0.028587487 -0.003919922 -0.03479505 0.03611829 0.009047329 0.033059917
-0.03241384 0.023281902 0.033232763 -0.0029657707 0.012661975 -0.00797246 -0.005205456 0.038075075
0.0230622 -0.024763366 0.022718757 -0.038955327 0.009132594 0.019391533 -0.015971985 0.03335076
0.0078049637 -0.029564768 0.006267894 -0.024031993 0.016564034 -0.03759383 0.031593308 -0.0018554963
-0.01676626 -0.038934298 0.013172321 -0.04011954 0.024510778 0.0296354 -0.01628288 -0.028151363
0.009892203 0.034357704 -0.03568313 -0.0056032576 0.03777471 0.02506689 0.00063057244 -0.027312996
0.0016490184 -0.035931233 -0.02502645 -0.03408631 -0.0027025603 -0.03596766 0.008477788 0.025988974
-0.015463712 0.021388788 0.038895406 0.019162826 -0.015955985 -0.012895035 -0.0106402 0.013059743
0.014779363 0.018249925 -0.01627483 0.027903631 -0.016795928 -0.0030319355 0.0016780347 0.020120516
-0.027533755 0.0126645975 0.03147856 -0.009507798 -0.01251219 -0.02882123 -0.0047542118 0.001425121
0.030988783 -0.0368727 -0.02955703 0.03673771 -0.015225785 -0.016000343 -0.032326795 -0.01634325
-0.03808567 0.0041958652 0.03603498 0.040183254 -0.022621552 -0.031699345 0.008756734 -0.03049475
0.026168995 0.00059659034 0.021154504 -0.036155112 -0.010044701 0.032365628 -0.009571314 0.034759253
-0.006251354 0.019987695 -0.009126652 0.027116917 -0.003628794 0.017087232 -0.013752177 -0.001964137
-0.022725902 0.0130952 0.01464051 0.0065686703 -0.0031982772 -0.026238132 0.010804042 -0.01870289
-0.016784593 0.023676045 -0.012021283 0.0004156679 -0.037986904 0.035846204 -0.024480976 -0.036513597
0.020514347 -0.016854493 -0.010055471 0.029155955 -0.029838238 -0.018096417 0.024258234 0.0036365427
0.009825904 -0.0011125356 0.04011797 0.012927223 -0.017208282 0.006188795 -0.0035126358 -0.021946507
-0.036216393 0.040464774 -0.028303817 -0.0037961528 -0.010289375 0.015271466 -0.015755972 0.018575065
-0.033346124 0.028844863 -0.007838793 0.003830444 -0.02775672 0.019785438 -0.032446563 0.031497337
0.02669008 0.038242206 -0.00434253 0.009936813 0.010785356 0.0027538687 0.010105588 -0.007799726
00000000: b8a2 93bb 4058 87bb c658 c7bc c4c8 18bd
00000010: 908b 513c 827c 08bd fa95 b8bc 80b3 d639
00000020: ecc8 5d3c 9cfe 05bd 7ac0 883c c639 58bc
00000030: f06a b1bb a807 d73c a08f f4ba 4a1f 163d
00000040: 74d7 183c e102 19bd 8000 243d 3497 503c
00000050: 6891 bd3c 4837 9fbb bc72 d3bc 3c23 cf3c
00000060: 96a9 66bc 742e 1a3d ae25 4fbc e853 0abc
00000070: a035 15bd c964 b0bc 9401 09bc 8b8c c4bc
00000080: b4ad 03bd ca99 083d 44ad f03c f467 ce3c
00000090: 04f6 fd3c de75 233d a03f 15bd 8cd1 453c
000000a0: c0af d73c e8cf b13c f07a ee3c 4426 0d3d
000000b0: aec4 e4bc bab7 64bc c099 163c 9c32 123d
000000c0: 4fdb acbc 6a21 32bc 2407 c73c 0099 95ba
000000d0: 5638 1a3d 4ace 2dbc abf7 9cbc 94fb c43c
000000e0: 88d7 f73b c849 f93c dcde d63c 56a1 45bc
000000f0: a8b7 12bd e836 dd3c 9838 a03b 011c bebc
00000100: 2019 abbc 08a4 cd3b 1c38 01bc 2ada 5fbc
00000110: 0c82 30bc a237 9a3c 2392 0fbd 3af8 163d
00000120: 24ab 25bc d451 edbc 6c07 0f3c 887f 1a3d
00000130: 36d9 1f3d f251 0bbd 0710 cdbc faa9 97bc
00000140: ae37 0d3d a28d c7bc 2e79 08bd 94da b63c
00000150: 1e6d 5dbc d01f 813b 2e0d e4bc 5601 893c
00000160: dff1 dbbc 40fc 20bb 4e30 eabc b072 80bb
00000170: 4185 0ebd c6f0 133d 403b 143c d669 073d
00000180: 60c4 04bd b0b9 be3c 141f 083d 605d 42bb
00000190: 2c74 4f3c ec9e 02bc 8892 aabb 9cf4 1b3d
000001a0: f0ec bc3c 8bdc cabc b01c ba3c 9f8f 1fbd
000001b0: e0a0 153c feda 9e3c aed7 82bc ce9a 083d
000001c0: c8c0 ff3b d031 f2bc e862 cd3b bede c4bc
000001d0: 4cb1 873c fdfb 19bd fc67 013d 2034 f3ba
000001e0: 6559 89bc 9279 1fbd b8d0 573c 6354 24bd
000001f0: d4ca c83c f0c5 f23c ad63 85bc b09d e6bc
00000200: e812 223c aaba 0c3d 7928 12bd 889b b7bb
00000210: a8b9 1a3d 1459 cd3c 004d 253a 81bf dfbc
00000220: e023 d83a a12c 13bd 4504 cdbc 169e 0bbd
00000230: 701d 31bb d352 13bd 6ce6 0a3c d4e6 d43c
00000240: 825b 7dbc 8a37 af3c ca50 1f3d 5cfb 9c3c
00000250: 20b6 82bc b245 53bc 3c54 2ebc 88f8 553c
00000260: 2425 723c de80 953c cb52 85bc 2896 e43c
00000270: 9d97 89bc 70b3 46bb 80f1 db3a c8d3 a43c
00000280: 788e e1bc 2c7f 4f3c aaef 003d 98c6 1bbc
00000290: eeff 4cbc 801a ecbc 38c9 9bbb 20cb ba3a
000002a0: 30dc fd3c d407 17bd 9621 f2bc 487a 163d
000002b0: 9275 79bc 2713 83bc 1a69 04bd 48e2 85bc
000002c0: b8ff 1bbd 787d 893b 6a99 133d 3297 243d
000002d0: d550 b9bc 2cd7 01bd 6878 0f3c 20d0 f9bc
000002e0: 5c60 d63c 8064 1c3a 364c ad3c 6217 14bd
000002f0: 8892 24bc d291 043d 00d1 1cbc b85f 0e3d
00000300: 28d8 ccbb 3cbd a33c f487 15bc 4c24 de3c
00000310: 10d1 6dbb 86fa 8b3c d050 61bc c0b8 00bb
00000320: ac2b babc 408d 563c c0de 6f3c 003e d73b
00000330: 309a 51bb 5af1 d6bc 7003 313c ce36 99bc
00000340: d87f 89bc 44f4 c13c eaf4 44bc 00ee d939
00000350: 2898 1bbd 78d3 123d 548c c8bc 488f 15bd
00000360: b40d a83c 6f12 8abc b4bf 24bc 78d8 ee3c
00000370: 526f f4bc f03e 94bc 34b9 c63c 1053 6e3b
00000380: d4fc 203c 80d2 91ba be52 243d b4cc 533c
00000390: 62f8 8cbc 60cb ca3b 4034 66bb 29c9 b3bc
000003a0: a457 14bd 64be 253d 68dd e7bc e0c8 78bb
000003b0: c494 28bc 2c35 7a3c ab12 81bc bc2a 983c
000003c0: f295 08bd 104c ec3c 486e 00bc 3008 7b3b
000003d0: 1062 e3bc 1215 a23c b0e6 04bd 5a03 013d
000003e0: 28a5 da3c dca3 1c3d c84b 8ebb 04ce 223c
000003f0: 10b5 303c 407a 343b e891 253c d894 ffbb

fc2.weight f4 [3, 598]
0.283927 0.6348344 -0.3359704 -0.48516712 1.5327017 0.28328225 -0.37332234 -0.50715274
0.37969 0.49638477 0.23215958 -0.49028406 -0.8300021 -0.26706207 0.03744147 0.09085819
-0.73660654 -0.30513605 0.9829072 -0.28412414 0.36903718 0.5719071 -0.23196162 -0.14992967
-0.79777575 1.7960463 0.5238166 -0.25472444 -0.7614172 0.7977105 -0.6594568 -0.55540425
-0.33961248 0.33898607 0.60558164 -0.341984 -0.5731009 -0.0457655 0.52142864 1.5995907
-0.86402994 0.8931536 0.572319 -0.28580195 -0.12368049 -0.8178899 -0.7787658 0.5642364
-0.033076096 0.7616003 -1.5468127 -1.2095451 -1.0997691 1.3795899 -0.5763549 0.1070704
-0.04067377 0.64814436 0.03686724 -0.16598973 0.5828085 -0.111235 0.18050206 -0.94064003
-0.8491914 -0.90302 0.160229 0.23314114 -0.032086205 0.4698439 -0.15207922 -0.121100254
-0.18402143 -0.72806484 0.13529459 0.18572244 -0.47553363 -0.5605412 0.027044607 -0.23471662
0.61744124 0.3820769 0.7611006 -0.40807265 0.08424749 0.009244122 0.11007702 -0.5472912
-0.23453341 -0.18659207 0.28105113 0.18250015 0.47864008 -0.4973699 -0.09994331 1.1111263
-0.21822524 0.42739645 -0.10096541 -0.76035535 0.3528678 0.5122563 0.90356934 0.49409306
0.52921146 0.6262566 -0.3875986 -0.94718564 -1.1654832 0.23394558 -0.60006416 0.7678212
1.4838042 -0.36593902 -0.47521457 0.037714154 -0.42259663 0.06342556 -0.607184 0.4195089
-0.16397382 0.386781 -0.8788471 -0.6692377 -0.4541273 0.5430116 0.65823436 0.07394579
0.7600265 0.1617558 -0.32933152 0.18978126 0.57003665 -1.0044848 -0.059591938 -1.6200261
0.94525325 0.34328216 -0.724462 -0.07357267 1.0003942 0.27273592 0.90241796 0.0016812637
0.19408621 -0.95833313 0.6768476 -0.4449591 -0.2431623 -0.6046773 0.32819664 0.8849347
0.46605882 -0.6712196 -0.87971765 -0.00020913084 0.5598241 0.043774918 0.8011732 -0.19754642
-0.50886035 -1.0338199 -0.57912517 -0.08528376 0.78477395 0.3495125 0.36486116 0.18744975
-0.4863392 -0.7041203 -0.80536354 0.5362152 0.35816532 0.27186722 -0.87946266 -0.23267971
-0.34938532 -1.1181022 0.24303137 0.0842405 -0.2809359 0.677745 0.085805856 0.0114971325
-0.16646275 -0.51617223 -0.91715527 0.25120577 0.3675433 0.06840821 0.82616717 0.562995
-0.61418384 -0.14636464 -0.62890655 0.5472759 0.4640015 -0.7313174 0.27313513 0.41591308
1.1417234 -0.48265988 0.7246189 0.22036524 -0.36781165 -0.29925597 1.0625738 -0.17862979
0.9660396 -0.4057568 -0.17257601 0.23827584 -0.75657445 -0.03223284 0.36683187 -0.81061035
-0.36565948 -0.1885362 0.60467845 0.5572153 0.62602973 0.3246239 0.95071876 -0.59424895
0.9494556 -0.22802098 0.34169057 -0.1373649 0.25952175 -0.11558135 -0.60065883 -0.0032976791
-0.054657966 0.61344916 0.86534274 0.42440337 0.3357633 0.25690517 0.25474006 0.41179848
-0.16010724 1.4623817 -0.9787295 -0.1553821 -0.23736799 -0.299167 0.37272996 -1.0022635
-0.10106518 -0.8017595 -0.91687566 0.16461903 0.72899026 -1.2312839 0.06264493 0.3833274
00000000: e15e 913e 8284 223f 5004 acbe d367 f8be
00000010: 922f c43f 5f0a 913e 1b24 bfbe c3d4 01bf
00000020: ba66 c23e 2526 fe3e 3ebb 6d3e 8306 fbbe
00000030: 057b 54bf 5cbc 88be 3a5c 193d dc13 ba3d
00000040: 3f92 3cbf cb3a 9cbe ce9f 7b3f b878 91be
00000050: 71f2 bc3e 8168 123f 5987 6dbe 2a87 19be
00000060: 083b 4cbf d8e4 e53f d818 063f 3e6b 82be
00000070: 3dec 42bf c136 4c3f 29d2 28bf f92e 0ebf
00000080: b0e1 adbe 958f ad3e 6607 1b3f 8718 afbe
00000090: beb6 12bf 9b74 3bbd 597c 053f 63bf cc3f
000000a0: 1131 5dbf b7a5 643f 7f83 123f a254 92be
000000b0: 324c fdbd 3c61 51bf 325d 47bf cc71 103f
000000c0: cd7a 07bd 3df8 423f f5fd c5bf 60d2 9abf
000000d0: 3cc5 8cbf 6796 b03f ff8b 13bf ba47 db3d
000000e0: 8a99 26bd caec 253f 1a02 173d 36f9 29be
000000f0: f032 153f 2dcf e3bd 88d5 383e c9cd 70bf
00000100: 9c64 59bf 522c 67bf 1213 243e 8dbc 6e3e
00000110: d36c 03bd 618f f03e a8ba 1bbe 6903 f8bd
00000120: 1d70 3cbe 7562 3abf aa8a 0a3e 062e 3e3e
00000130: 2579 f3be a17f 0fbf a78c dd3c 8e59 70be
00000140: a110 1e3f 959f c33e 7dd7 423f e6ee d0be
00000150: f389 ac3d a874 173c 1070 e13d 471b 0cbf
00000160: 8729 70be fe11 3fbe efe5 8f3e 52e1 3a3e
00000170: 5010 f53e 44a7 febe 14af ccbd 6339 8e3f
00000180: 7076 5fbe b5d3 da3e f4c6 cebd a6a6 42bf
00000190: 17ab b43e 3b23 033f 5250 673f c4f9 fc3e
000001a0: 677a 073f 5a52 203f 5373 c6be c27a 72bf
000001b0: 8e2e 95bf 6e8f 6f3e ce9d 19bf ee8f 443f
000001c0: 4ced bd3f 5c5c bbbe 534f f3be 287a 1a3d
000001d0: 965e d8be 43e5 813d 6970 1bbf dfc9 d63e
000001e0: c1e8 27be 2908 c63e 20fc 60bf 2953 2bbf
000001f0: 6083 e8be cf02 0b3f 0c82 283f e470 973d
00000200: 1991 423f 50a3 253e 249e a8be 0556 423e
00000210: eced 113f f592 80bf ad16 74bd 045d cfbf
00000220: 1efc 713f aec2 af3e 5776 39bf 45ad 96bd
00000230: eb0c 803f 0ba4 8b3e dd04 673f d95d dc3a
00000240: 89be 463e 5255 75bf e245 2d3f aed1 e3be
00000250: 8aff 78be 22cc 1abf 6409 a83e 158b 623f
00000260: 439f ee3e 0cd5 2bbf 2d35 61bf 224a 5bb9
00000270: a250 0f3f 544d 333d b019 4d3f 9c49 4abe
00000280: ac44 02bf 3654 84bf 8c41 14bf 41a9 aebd
00000290: f2e6 483f 4df3 b23e 15cf ba3e d4f2 3f3e
000002a0: 7401 f9be 3a41 34bf 4e2c 4ebf 6645 093f
000002b0: 7261 b73e 2e32 8b3e 7724 61bf 9743 6ebe
000002c0: a2e2 b2be f91d 8fbf 37dd 783e 4986 ac3d
000002d0: d5d6 8fbe b280 2d3f fbba af3d 785e 3c3c
000002e0: 3675 2abe dd23 04bf b0ca 6abf 0b9e 803e
000002f0: a32e bc3e 9b19 8c3d b17f 533f 7120 103f
00000300: 273b 1dbf 9de0 15be 0500 21bf 461a 0c3f
00000310: 9b91 ed3e 9e37 3bbf 5ed8 8b3e 8ff2 d43e
00000320: fe23 923f 321f f7be a080 393f 6da7 613e
00000330: cf51 bcbe 1438 99be 6b02 883f baea 36be
00000340: 5f4e 773f 5bbf cfbe c4b7 30be 95fe 733e
00000350: ddae 41bf 9506 04bd 63d1 bb3e 2984 4fbf
00000360: b837 bbbe a20f 41be 35cc 1a3f a9a5 0e3f
00000370: 7c43 203f 1b35 a63e 4e62 733f b320 18bf
00000380: 860f 733f 557e 69be 11f2 ae3e 62a9 0cbe
00000390: 09e0 843e eab5 ecbd c7c4 19bf e01d 58bb
000003a0: 08e1 5fbd 010b 1d3f 1a87 5d3f 664b d93e
000003b0: 2be9 ab3e 1389 833e 4a6d 823e 40d7 d23e
000003c0: 27f3 23be 532f bb3f 048e 7abf 7c1c 1fbe
000003d0: 9810 73be 6b2c 99be 76d6 be3e 2c4a 80bf
000003e0: 43fb cebd 1c40 4dbf 5db8 6abf e491 283e
000003f0: 1b9f 3a3f b69a 9dbf fc4b 803d 7d43 c43e

fc2.bias f4 [3]
-0.74555045 1.0104167 -0.7018635
00000000: 65dc 3ebf 5655 813f 54ad 33bf

exp_avg f4 [3, 1, 3]
-4.5777175e-05 3.436396e-06 -8.2901955e-05 -2.9923342e-05 -1.779123e-05 -3.099572e-05 -0.00033889952 -8.769432e-05
0.0011186908
00000000: de00 40b8 d59c 6636 a6db adb8 e303 fbb7
00000010: 603e 95b7 6701 02b8 53ae b1b9 88e8 b7b8
00000020: 09a1 923a

exp_avg_sq f4 [3, 1, 3]
2.3341101e-08 3.7127998e-09 5.502458e-09 2.8866742e-09 2.4159859e-09 1.710755e-09 1.344887e-06 2.0525601e-06
2.2297515e-06
00000000: a07f c832 4424 7f31 2210 bd31 e95e 4631
00000010: 7906 2631 d71f eb30 f781 b435 b7be 0936
00000020: d7a2 1536

exp_avg f4 [3]
-0.0003825371 -0.0001425031 0.009102771
00000000: 438f c8b9 e26c 15b9 ca23 153c

exp_avg_sq f4 [3]
5.9128666e-07 7.802221e-08 0.0033640084
00000000: e9b8 1e35 2a8d a733 b276 5c3b

exp_avg f4 [3, 598]
0.0003547449 0.00023926348 0.0005728415 0.0001597361 -0.00043405723 -0.00049096503 -0.00053649215 -0.00032811868
-0.00020679155 -0.0005274952 -0.00038522197 -0.0002532643 -0.00013312935 0.00025233155 4.8970196e-05 -0.00013069004
-0.0002666538 0.00036284886 -0.0005979656 0.00027612958 0.0002191609 -0.0001792154 -0.00026943022 -1.6647882e-06
-0.00039476302 -0.0003863177 -0.00053534517 -0.00037953915 -0.000395742 -0.00047434622 -0.0004465662 -0.00013391116
-0.00021079976 -8.81699e-05 -0.00034653768 -0.00021416106 5.0589853e-05 -0.00018389971 0.00037961281 -0.0003311294
-0.0002953094 -0.00046268225 -0.00029547873 3.2711487e-05 -0.00016020657 0.00022327251 0.00051047414 -6.61495e-05
-0.00020481242 8.305991e-05 0.00031178968 0.00029445326 0.00022311759 0.00042482623 0.00053217326 0.00014610915
0.0003905625 -0.00013623427 0.00039705605 0.00033040353 -0.00011677097 -0.0002646348 -0.000118302145 -2.3774503e-05
8.0604885e-05 0.00063039106 0.0003868318 0.00066938694 0.00049523823 0.00018543075 -0.0002936138 -0.00023742089
-0.00028548558 -2.2523009e-05 1.2846977e-05 0.0002531744 0.0003116104 0.000425658 0.0003084979 0.0003888891
8.859105e-05 0.00040111342 0.0003793551 0.00048266165 0.00043686232 0.00028401014 -0.0003494438 -0.00037841752
-0.00015487731 0.00020357115 2.0521305e-05 -5.902455e-05 -5.386912e-05 -0.00025807918 -0.00021588175 1.4599634e-05
0.00044755996 0.00034582763 0.00016391648 0.00015271263 -0.00014264553 -8.371031e-05 0.00014199365 0.00019637831
6.456084e-05 -0.0004277035 -5.3264423e-05 -0.00025874042 -0.00010776041 0.00028986591 -0.00016641297 -0.00057047396
-0.0001070785 -0.00026368524 0.00043544726 0.00035915905 0.0004898329 0.0004070232 0.00037895745 0.0004929148
-0.00034345713 -0.00028929568 -0.00021970645 -0.00047396496 -0.0005871857 -0.00048163524 -0.00045676588 5.817479e-05
-0.00019610189 0.00042094986 0.00024355407 -1.9105039e-05 -0.00046855444 -3.209845e-05 0.0003121615 0.00030679844
0.0003450096 0.00026548764 0.00013077274 -0.00027216 0.00033338397 -0.00022618697 0.00033936882 -0.00044596446
-0.0002787414 0.0001090047 -0.00047667552 0.000112860595 0.00026056578 -9.995629e-05 -0.0003016957 3.0987287e-06
-0.0005055684 -0.0005521797 -0.00015207862 0.00025695577 -0.00030226208 0.00024127 -0.00012828894 0.00016005151
-8.4620905e-07 0.00024902422 -0.0002579919 0.00038087158 -0.0004790242 -0.00029991302 -0.0006012647 -7.271167e-05
6.1869934e-05 0.00041139688 0.00045338267 -9.709755e-05 -7.090186e-05 -0.00025050796 -0.0002636964 -0.0005055762
-0.00038581944 -0.00053802825 0.00039163412 0.0002549124 9.987354e-05 -0.00011177973 -2.2514207e-05 0.00025340056
0.0004157082 0.00057536125 0.00025396218 0.00034323783 0.00021209325 -0.00030409542 0.00022655175 -7.443417e-05
-0.00031729694 0.00039183273 6.613286e-05 0.00033724328 -0.0003375872 -0.0002955736 -0.00046777716 -0.0003918473
-0.00032239401 0.00016650396 0.00019490726 -0.000113561866 0.00016280446 0.00036882074 -0.00024308066 -0.00031461896
-0.0006657869 -0.00022211118 -0.000536616 -0.0005114593 0.00014664863 8.864347e-05 0.000106901825 0.0006761064
0.00029732022 -0.00025046346 -0.00013422516 -0.00018889221 0.00043537954 0.00051234267 0.00027051737 6.9881316e-06
0.00025317082 0.00024793643 -0.00037761728 -0.00012620061 0.00025791163 0.00029348937 2.8303915e-05 -0.0005190114
-0.00041529603 -0.00024109599 -0.00023702472 -0.00039180345 -0.00023682279 -0.00016365312 0.00038153864 -1.7044778e-05
0.00030898306 0.00035247667 7.747204e-05 0.0002743347 -0.00037916953 3.6573838e-05 0.00012527024 -0.00042736944
-0.0004234238 -0.0004926954 -0.00035410462 -0.00028650172 -0.00036433156 -0.00039723355 -0.00044694133 -0.00045417808
00000000: 0efd b939 cde2 7a39 be2a 163a d57e 2739
00000010: 2d92 e3b9 1bb4 00ba 61a3 0cba 5807 acb9
00000020: 2fd6 58b9 9b47 0aba 9ef7 c9b9 8fc8 84b9
00000030: a398 0bb9 5e4b 8439 5965 4d38 d709 09b9
00000040: abcd 8bb9 c03c be39 cbc0 1cba 7cc5 9039
00000050: 8ece 6539 c5eb 3bb9 5042 8db9 b071 dfb5
00000060: 32f8 ceb9 af8a cab9 6856 0cba e2fc c6b9
00000070: 987b cfb9 acb1 f8b9 1a21 eab9 816a 0cb9
00000080: 210a 5db9 dbe7 b8b8 80af b5b9 6c90 60b9
00000090: 7130 5438 34d5 40b9 c506 c739 709b adb9
000000a0: c2d3 9ab9 2994 f2b9 7cea 9ab9 b133 0938
000000b0: 20fd 27b9 421e 6a39 57d1 053a beb9 8ab8
000000c0: eac2 56b9 7330 ae38 b477 a339 d960 9a39
000000d0: acf4 6939 36bb de39 8b81 0b3a e034 1939
000000e0: 69c4 cc39 1cda 0eb9 f62b d039 033a ad39
000000f0: f0e2 f4b8 aebe 8ab9 fb18 f8b8 5b6f c7b7
00000100: 6b0a a938 d440 253a afcf ca39 cc79 2f3a
00000110: e0d2 013a 3070 4239 2df0 99b9 2ff4 78b9
00000120: 3aad 95b9 cbef bcb7 5989 5737 7ebc 8439
00000130: a45f a339 da2a df39 e3bd a139 d0e3 cb39
00000140: f5c9 b938 884c d239 2ee4 c639 c00d fd39
00000150: ab0a e539 32e7 9439 8e35 b7b9 5766 c6b9
00000160: 9066 22b9 b775 5539 2b25 ac37 2191 77b8
00000170: 87f1 61b8 cd4e 87b9 515e 62b9 f3f0 7437
00000180: 7ba6 ea39 3350 b539 ffe0 2b39 7c21 2039
00000190: 1e93 15b9 a18d afb8 21e4 1439 e7ea 4d39
000001a0: d664 8738 643d e0b9 3d68 5fb8 8da7 87b9
000001b0: 6efd e1b8 25f9 9739 247f 2eb9 dc8b 15ba
000001c0: 558f e0b8 3c3f 8ab9 be4c e439 834d bc39
000001d0: 2168 003a bb65 d539 cfae c639 f436 013a
000001e0: 0912 b4b9 9cac 97b9 0061 66b9 807e f8b9
000001f0: 5eed 19ba fd83 fcb9 147a efb9 b500 7438
00000200: b3a0 4db9 efb2 dc39 8c62 7f39 c243 a0b7
00000210: 50a8 f5b9 73a1 06b8 9ba9 a339 cad9 a039
00000220: 68e2 b439 2631 8b39 0a20 0939 b2b0 8eb9
00000230: 0aca ae39 9a2c 6db9 50ed b139 56d0 e9b9
00000240: 0a24 92b9 7499 e438 4eea f9b9 92af ec38
00000250: 8c9c 8839 a09f d1b8 e92c 9eb9 c1f3 4f36
00000260: 1f88 04ba 27c0 10ba 4b77 1fb9 05b8 8639
00000270: ee78 9eb9 6cfd 7c39 4d85 06b9 80d3 2739
00000280: 0b27 63b5 778f 8239 1643 87b9 b8af c739
00000290: 8a25 fbb9 a53d 9db9 319e 1dba c87c 98b8
000002a0: 2bc0 8138 c1b0 d739 feb3 ed39 daa0 cbb8
000002b0: 25b1 94b8 9c56 83b9 bb40 8ab9 a588 04ba
000002c0: cf47 cab9 770a 0dba 3e54 cd39 c3a5 8539
000002d0: 3373 d138 496b eab8 e4dc bcb7 d9da 8439
000002e0: 69f3 d939 d7d3 163a 3a26 8539 9af4 b339
000002f0: 5965 5e39 ff6e 9fb9 868e 6d39 8a19 9cb8
00000300: e05a a6b9 e66e cd39 cfb0 8a38 07d0 b039
00000310: 30fe b0b9 38f7 9ab9 fd3f f5b9 db70 cdb9
00000320: fe06 a9b9 9197 2e39 0560 4c39 1028 eeb8
00000330: 7db6 2a39 485e c139 78e3 7eb9 71f3 a4b9
00000340: 3488 2eba 84e6 68b9 b1ab 0cba 7413 06ba
00000350: b1c5 1939 1ae6 b938 7b30 e038 bc3c 313a
00000360: a5e1 9b39 a350 83b9 cbbe 0cb9 5e11 46b9
00000370: a743 e439 bc4e 063a 3ad4 8d39 987b ea36
00000380: 03bc 8439 77fd 8139 effa c5b9 b854 04b9
00000390: 5038 8739 7adf 9939 326e ed37 440e 08ba
000003a0: 17bc d9b9 b6ce 7cb9 d789 78b9 f86a cdb9
000003b0: a253 78b9 4d9a 2bb9 4009 c839 62fb 8eb7
000003c0: 01ff a139 9ecc b839 7c78 a238 95d4 8f39
000003d0: 46cb c6b9 dc66 1938 f95a 0339 8e10 e0b9
000003e0: fbfe ddb9 3b28 01ba 1ea7 b9b9 9c35 96b9
000003f0: c103 bfb9 c943 d0b9 7353 eab9 c01e eeb9

exp_avg_sq f4 [3, 598]
7.2936166e-07 6.460384e-07 8.889789e-07 1.0444455e-06 1.3268666e-06 1.332539e-06 9.64008e-07 7.6865115e-07
1.1511385e-06 1.3306917e-06 5.153237e-07 4.751765e-07 7.1688254e-07 6.386239e-07 6.397848e-07 4.430562e-07
4.1309823e-07 7.7965416e-07 9.2955895e-07 1.4192693e-06 1.4891494e-06 1.0057629e-06 4.8323733e-07 9.870744e-07
7.70972e-07 6.485573e-07 6.3781886e-07 9.871984e-07 7.341992e-07 9.351967e-07 7.4759134e-07 5.9262186e-07
6.2288547e-07 6.473454e-07 1.0106786e-06 4.940006e-07 4.5267856e-07 5.61656e-07 6.6656247e-07 5.3103673e-07
5.787499e-07 4.8762615e-07 1.0163773e-06 4.697595e-07 5.028854e-07 5.8111004e-07 6.423162e-07 7.0374836e-07
4.377727e-07 5.0360256e-07 2.9689159e-06 3.1678899e-06 3.733448e-06 5.2161533e-07 6.7973815e-07 7.6778633e-07
5.4539305e-07 4.975515e-07 7.5318314e-07 7.073098e-07 5.7670366e-07 9.596024e-07 5.5271533e-07 9.1083774e-07
7.801293e-07 1.237086e-06 7.51884e-07 8.308653e-07 9.332651e-07 7.451549e-07 6.3149685e-07 1.1852092e-06
1.0615819e-06 1.4580959e-06 5.3629003e-07 6.0638473e-07 3.9113795e-07 8.046367e-07 8.426072e-07 1.97616e-06
4.1924173e-07 1.6221859e-06 1.4797985e-06 2.4798321e-06 7.847816e-07 8.362072e-07 6.309905e-07 5.990165e-07
7.944035e-07 7.657553e-07 6.8029857e-07 1.2162394e-06 1.1606055e-06 1.2052334e-06 4.3712942e-07 5.458253e-07
5.9747094e-07 4.8316224e-07 9.646803e-07 1.3363334e-06 2.0370237e-06 6.536176e-07 7.4044624e-07 8.8106725e-07
1.693749e-06 8.1889175e-07 1.3337537e-06 6.248118e-07 7.0336887e-07 6.340301e-07 5.063914e-07 1.291748e-06
5.392323e-07 5.008075e-07 9.5355256e-07 8.8996603e-07 5.697267e-07 1.5694199e-06 2.0362038e-06 2.7834535e-06
5.41702e-07 7.154056e-07 4.1990418e-07 1.4165582e-06 7.97266e-07 1.5517622e-06 8.010855e-07 6.3562686e-07
1.154159e-06 1.1156081e-06 7.648641e-07 5.7668166e-07 9.56235e-07 5.510107e-07 8.1991186e-07 1.459372e-06
8.3305025e-07 6.101425e-07 5.913355e-07 7.398349e-07 8.550859e-07 5.7998125e-07 6.6417545e-07 1.5727911e-06
5.697962e-07 4.5844962e-07 7.108662e-07 8.75841e-07 7.2949894e-07 5.182958e-07 1.104634e-06 4.856472e-07
8.0781194e-07 5.8074727e-07 4.331565e-07 7.113796e-07 5.0369255e-07 7.7325296e-07 4.0889051e-07 9.628494e-07
7.4854387e-07 8.5319283e-07 6.940184e-07 1.1498354e-06 6.9353547e-07 1.0156402e-06 1.0407074e-06 3.9986156e-07
8.616732e-07 1.0062986e-06 1.1775056e-06 4.3893672e-07 4.2146402e-07 1.1885592e-06 1.6109979e-06 1.6766107e-06
2.1145252e-06 1.4137887e-06 1.1402144e-06 8.1984615e-07 5.0289134e-07 4.23417e-07 7.978666e-07 8.273502e-07
7.4290716e-07 1.0565407e-06 1.1631437e-06 1.1516744e-06 7.418724e-07 6.163808e-07 5.250801e-07 6.901762e-07
4.4455425e-07 7.7917394e-07 4.7419056e-07 7.0448306e-07 9.198857e-07 6.5420124e-07 1.430597e-06 6.023163e-07
6.525872e-07 4.87539e-07 6.3269925e-07 8.3689577e-07 7.555066e-07 8.461304e-07 6.5655627e-07 6.5533175e-07
5.952786e-07 4.92131e-07 8.266679e-07 5.58437e-07 7.386003e-07 6.6975133e-07 8.5290634e-07 6.7939783e-07
7.9225237e-07 4.975974e-07 5.391621e-07 4.699757e-07 7.275433e-07 9.457853e-07 9.0779076e-07 4.329492e-07
5.985234e-07 5.533998e-07 4.9608565e-07 1.024342e-06 1.4818954e-06 1.8082973e-06 1.1486176e-06 7.2384483e-07
2.393739e-06 6.4496555e-07 7.8226276e-07 1.0877011e-06 8.8279234e-07 1.1759387e-06 2.3734651e-06 8.5666466e-07
5.279542e-07 7.4962475e-07 5.688979e-07 6.6287936e-07 4.8592136e-07 5.517019e-07 4.2960255e-07 6.538508e-07
8.743837e-07 1.5289213e-06 6.334376e-07 6.757126e-07 1.1001359e-06 9.742643e-07 1.4089026e-06 1.3046458e-06
00000000: 5ac9 4335 6c6b 2d35 2aa2 6e35 e02e 8c35
00000010: ca16 b235 b1d9 b235 1063 8135 4e55 4e35
00000020: d180 9a35 389a b235 c654 0a35 c31b ff34
00000030: cb6f 4035 e66d 2b35 adbd 2b35 2edd ed34
00000040: cac7 dd34 6d49 5135 ce86 7935 b97d be35
00000050: c9de c735 c0fd 8635 d1b7 0135 9e7b 8435
00000060: cbf4 4e35 8518 2e35 9436 2b35 e17f 8435
00000070: c915 4535 3a0a 7b35 16ae 4835 aa14 1f35
00000080: 5d34 2735 3dc5 2d35 a7a6 8735 769b 0435
00000090: ab07 f334 b5c4 1635 d3ed 3235 918c 0e35
000000a0: 645b 1b35 6ae5 0235 756a 8835 4133 fc34
000000b0: 06fe 0635 94fd 1b35 a26b 2c35 38e9 3c35
000000c0: 0607 eb34 4e2f 0735 963d 4736 ef97 5436
000000d0: 268c 7a36 2205 0c35 4077 3635 e019 4e35
000000e0: 2067 1235 7b8f 0535 5a2e 4a35 f6dd 3d35
000000f0: c6ce 1a35 b0cb 8035 4f5e 1435 4b80 7435
00000100: 146a 5135 f409 a635 13d5 4935 a108 5f35
00000110: 7d85 7a35 a806 4835 2284 2935 7a13 9f35
00000120: ad7b 8e35 cbb3 c335 92f5 0f35 71c6 2235
00000130: 97fd d134 37fe 5735 872f 6235 2c9e 0436
00000140: 2514 e134 e2b9 d935 7d9d c635 316b 2636
00000150: c8a9 5235 b977 6035 5661 2935 1acc 2035
00000160: fe3e 5535 4e8e 4d35 c39d 3635 ab3d a335
00000170: 1ac6 9b35 81c3 a135 9cae ea34 d484 1235
00000180: e461 2035 a8b2 0135 2a7a 8135 115c b335
00000190: cdb3 0836 4274 2f35 14c3 4635 7b82 6c35
000001a0: c654 e335 d0d1 5b35 6e03 b335 bdb8 2735
000001b0: 24cf 3c35 3732 2a35 f4ee 0735 2060 ad35
000001c0: c3bf 1035 3b6f 0635 a2f7 7f35 00e6 6e35
000001d0: 52ef 1835 dba4 d235 b7a5 0836 5ecb 3a36
000001e0: 7a69 1135 4c0a 4035 316f e134 9220 be35
000001f0: b403 5635 2546 d035 2d0a 5735 f29f 2a35
00000200: 9ae8 9a35 01bc 9535 1051 4d35 43cd 1a35
00000210: fc57 8035 2be9 1335 ea17 5c35 a4df c335
00000220: c79e 5f35 acc8 2335 44bc 1e35 1199 4635
00000230: 0e89 6535 02b0 1b35 ca49 3235 b118 d335
00000240: 19f4 1835 d620 f634 5ad2 3e35 561b 6b35
00000250: c9d2 4335 0421 0b35 ef42 9435 6c5d 0235
00000260: 6ad8 5835 a6e4 1b35 938c e834 a2f5 3e35
00000270: 7d35 0735 8a91 4f35 7c85 db34 413b 8135
00000280: 8bef 4835 f706 6535 954c 3a35 0b54 9a35
00000290: 652b 3a35 2251 8835 6fae 8b35 8eac d634
000002a0: bb4d 6735 2810 8735 c90a 9e35 01a7 eb34
000002b0: 9345 e234 9586 9f35 7739 d835 e807 e135
000002c0: 44e7 0d36 69c1 bd35 7809 9935 6613 5c35
000002d0: 6efe 0635 fd51 e334 fa2c 5635 1317 5e35
000002e0: 316c 4735 76ce 8d35 501d 9c35 3b93 9a35
000002f0: 1525 4735 5e75 2535 3bf3 0c35 8c44 3935
00000300: 12ab ee34 6d28 5135 4194 fe34 b51b 3d35
00000310: 10ee 7635 5e9c 2f35 f002 c035 dcae 2135
00000320: 732d 2f35 6ddf 0235 c3d6 2935 0aa7 6035
00000330: 05ce 4a35 a321 6335 343e 3035 0eea 2f35
00000340: 3ccb 1f35 fc1a 0435 2fe8 5d35 80e7 1535
00000350: 3a44 4635 f6c8 3335 47f3 6435 dd5f 3635
00000360: 2bab 5435 a292 0535 f0ba 1035 f850 fc34
00000370: 654c 4335 dfe1 7d35 e8ae 7335 1670 e834
00000380: 37aa 2035 588d 1435 bf2a 0535 207c 8935
00000390: 8ae5 c635 9fb4 f235 332a 9a35 3d4e 4235
000003a0: 1fa4 2036 b221 2d35 b0fc 5135 20fd 9135
000003b0: 07f9 6c35 f2d4 9d35 d247 1f36 8cf5 6535
000003c0: bdb8 0d35 d239 4935 5eb6 1835 b9f0 3135
000003d0: 4370 0235 aa18 1435 20a4 e634 4984 2f35
000003e0: 31b7 6a35 5635 cd35 8009 2a35 9e62 3535
000003f0: 62a8 9335 77c3 8235 8619 bd35 4a1b af35

exp_avg f4 [3]
0.00019671625 -0.00020192642 8.215535e-07
00000000: 9e45 4e39 36bc 53b9 ba88 5c35

exp_avg_sq f4 [3]
4.246065e-06 4.0406703e-06 1.957305e-07
00000000: 6c79 8e36 1895 8736 fd29 5234
